文件合集/人工智能系统实战第三期/实战代码/深度学习项目实战/基于自编码器的图片检索/AutoEncoder/model.pt (torch, 888126 bytes, 16 tensors)

weight f4 [128, 784]
000000 6b 04 10 bc c8 42 81 3c 17 97 c7 3c f1 18 25 3c
       -0.008790116 0.015778914 0.024364037 0.010076747
000010 59 14 a6 3c 39 96 c7 3c e3 15 f8 3c 60 f4 cd bc
       0.020273374 0.024363624 0.030283874 -0.025140941
000020 41 3d 1f 3d 79 5a 78 bc 0b c9 27 3d c1 e2 25 3d
       0.038876776 -0.015158289 0.040963214 0.040499453
000030 b1 96 29 3d 8d a0 42 3c fa 90 df bc 35 e5 cd 3c
       0.041403476 0.011879099 -0.02729081 0.025133708
000040 e2 09 b7 3b a2 ff 9b ba 46 3c 4e bc 9b b5 e1 3c
       0.005585895 -0.0011901746 -0.0125876125 0.027552417
000050 2d d4 af 3c 5f ec 0a 3d 39 c9 2f 3d 57 ef bb bc
       0.021463478 0.033916827 0.04291651 -0.022941275
000060 ff 79 f7 3c 80 94 51 3c 97 03 88 bc 51 f3 10 3d
       0.03020954 0.012791753 -0.016603274 0.035388295
000070 b1 0b b0 3b 7b c5 5e 39 25 48 f2 3c e1 78 34 3c
       0.0053724875 0.00021245137 0.029575417 0.011015148
000080 51 17 7a 3c cb dc e9 3c 8f 8f 01 3d a9 4d be 3c
       0.015264348 0.028547665 0.03163105 0.02323039
000090 8d 4d dd 3a 05 db 8f 3c af bb c7 3c 1c 50 f4 3a
       0.0016884074 0.017560491 0.024381487 0.0018639597
0000a0 07 f2 9f 3c 72 52 e5 bb 33 8c fb 3c e7 9a c6 3c
       0.019524587 -0.0069983536 0.0307065 0.024243785
0000b0 f2 90 ac bb 65 b0 6a ba 9e 3b 1e 3c d1 31 73 bb
       -0.0052663023 -0.00089526764 0.0096577685 -0.003710855
0000c0 54 07 3f bc 4b 00 85 bc ad a3 ba 3c 03 f8 27 3d
       -0.011659462 -0.016235491 0.022783125 0.041008007
0000d0 cd a8 88 3c 35 ab 35 3c a2 a7 be bb 5a 25 b6 3b
       0.016682053 0.011088182 -0.005818323 0.005558652
0000e0 a1 da cf 3c f5 d1 a1 bc 61 ea 35 bb 69 fc 8e bc
       0.025372805 -0.019753436 -0.002775811 -0.017454343
0000f0 f5 99 c1 bc 42 6f 6e bb a3 49 b0 3c a7 9f fe 3c
       -0.023632983 -0.0036382233 0.021519488 0.031081988
000100 79 20 13 3c 9f c7 05 bb 58 db 62 bc 09 47 1c 39
       0.00897991 -0.0020413173 -0.013846241 0.00014903782
000110 3e 80 17 3d 69 b5 b6 bc 8e 32 ef 3c b6 b5 32 3d
       0.036987536 -0.0223033 0.029198911 0.043630324
000120 50 84 03 bb be 54 95 ba ec 8b 68 3c 65 21 19 3d
       -0.0020067878 -0.0011393053 0.014193516 0.037385363
000130 5f d9 c8 3c b5 a1 70 3c aa 09 e9 bb 19 94 04 3d
       0.024517713 0.014686991 -0.0071117477 0.0323678
000140 89 b1 30 3d 9b 67 9c bc 4b fc 04 bc 1c 07 71 3a
       0.04313806 -0.019092372 -0.008116792 0.000919448
000150 53 55 7e bb 91 d5 05 bc f2 64 19 3c ce cf a8 bb
       -0.0038808181 -0.008168594 0.009362446 -0.0051517254
000160 c1 39 1b 3d 65 cc 9b 3c d3 39 9e 3c 98 8e 0d bc
       0.037896875 0.019018361 0.019314682 -0.008639954
000170 c4 96 e9 3c 61 f0 64 3c 6c 65 8b 3c e4 08 15 3d
       0.028514273 0.013973326 0.017016135 0.036385432
000180 7c 6d b9 bc 81 a0 94 bc 1a 9a fc 3b 53 7d 26 3d
       -0.022635214 -0.01814294 0.0077088 0.040646862
000190 81 9d ff 3b 35 a4 46 3c 36 8d 35 bb ed 62 91 bc
       0.0078007584 0.012124111 -0.0027702576 -0.017747367
0001a0 c3 4f b8 3c 43 18 d4 3c fb e0 fa bb f3 5f c8 3b
       0.02249897 0.025890475 -0.0076562143 0.0061149537
0001b0 a4 ca 63 ba d7 d3 81 3b 39 1c 62 3c 3a a6 a9 3b
       -0.00086895586 0.003962021 0.013800674 0.0051772865
0001c0 be 6b 45 bc 42 9b f7 3b d5 a7 d2 bc e2 3c e4 bb
       -0.0120496135 0.00755635 -0.025714794 -0.0069652656
0001d0 8a df c8 bc 5e 2d 72 bc 82 f2 ae bb 84 16 4d bb
       -0.024520654 -0.014781324 -0.005338968 -0.0031293938
0001e0 84 ad 14 bc c3 f5 bd bc e9 ca 76 39 58 78 8f bc
       -0.0090745725 -0.023188477 0.00023535978 -0.017513439
0001f0 cb 5e 88 3c 2b cf cb bc b4 9d 35 bc a4 fe 19 3d
       0.016646763 -0.024879059 -0.011084963 0.03759636
000200 29 54 09 3d cf 50 13 3d 0f 29 84 bc 0c 45 f7 bb
       0.033527527 0.035965737 -0.01613286 -0.007546073
000210 43 99 53 3c 9b 94 cf bb 72 94 36 3c 5c 3c 4b bc
       0.012914958 -0.006334854 0.011143791 -0.0124045275
000220 30 40 35 3c 2c b7 88 3c bb 98 97 bc fe 0e 9d bc
       0.011062667 0.016688906 -0.018505445 -0.019172188
000230 d0 50 a7 bc 8f 6f 56 bc c9 13 9f bc 05 28 2c 3d
       -0.020424277 -0.013088121 -0.019418614 0.042030353
000240 8b 0e b3 b9 f7 65 85 bc 09 0f 07 3d 24 2c 73 3c
       -0.00034152376 -0.016283972 0.032973323 0.014842067
000250 af 25 ac bc 79 a4 55 3a a7 93 ab 3c 01 8a 18 3d
       -0.021014063 0.00081498135 0.02094443 0.037240986
000260 3f 12 09 3b 82 c3 1f 3c 3f 4b c6 3c 3b db 1c bc
       0.0020915417 0.009751203 0.024205802 -0.009573753
000270 f5 02 c5 bb 85 97 40 bb 35 82 18 bc bc f1 97 bc
       -0.0060123154 -0.0029387188 -0.0093083875 -0.018547885
000280 7e 4d 1c bc d0 7d d9 3b d3 25 17 bb 40 00 42 bb
       -0.00953996 0.0066373125 -0.0023063316 -0.00296022
000290 25 da 00 3d 41 d6 bd bc 10 bc d6 bb 66 21 07 3d
       0.03145804 -0.023173453 -0.0065531805 0.032990836
0002a0 28 e5 58 3c 93 11 af bc 17 5c 2d 3d da d0 a4 3b
       0.013238229 -0.021370685 0.04232415 0.00502978
0002b0 3a 84 e7 3b a5 0c b9 bc 05 b3 8b 3c 70 5b 84 bc
       0.007065323 -0.022589037 0.017053137 -0.016156882
0002c0 79 21 86 3c bb ec 96 3c 2e 1f c7 3c 63 8e f3 3c
       0.016373383 0.018423429 0.02430686 0.029730981
0002d0 b7 51 de 3c 0a cd c8 3c 12 c0 d4 3c fc d3 1a bc
       0.027138574 0.024511833 0.025970493 -0.009449955
0002e0 20 72 1e bc 56 7f f5 bc 23 30 6c bc 8e 39 31 bc
       -0.009670764 -0.029967945 -0.014415774 -0.010816945
0002f0 ec 87 de bb a4 90 97 bb 34 79 7c 3c 74 f6 0c 3d
       -0.0067911055 -0.004625397 0.015409756 0.034414724
000300 4e e2 91 39 32 fe b2 3c bb 7f 8f 3c b3 b0 7a 3b
       0.00027825165 0.021849725 0.017516961 0.0038252294
000310 07 70 33 bc 85 7d ae 3c a9 26 7c 3c 5b bc 8b 3c
       -0.010952002 0.021300087 0.015390077 0.017057588
000320 70 af b3 bc e5 bc 5c bc ac c3 13 3d 6f 92 9c bc
       -0.021934241 -0.01347277 0.03607528 -0.019112794
000330 e9 0a 18 3d 8d 38 8a 3c 08 0a b8 3c c4 8c fc 3c
       0.03711978 0.016872669 0.02246572 0.030828841
000340 48 4f 1f 3d b8 c5 a3 3c 13 a6 d4 3c 96 1c b9 bb
       0.038893968 0.01999174 0.025958097 -0.0056491597
000350 a4 26 9e bc df 13 9b 3c 07 7c 64 bb 51 bf ca 3c
       -0.019305535 0.018930374 -0.0034863965 0.02474943
000360 39 d3 98 3c 94 06 38 bc e6 4e ae bc 68 74 fd 3c
       0.018655406 -0.011232037 -0.021277856 0.030939296
000370 4e bd 17 3c bc 6e c6 bc c1 01 2e 3b bd be 5b bc
       0.009261442 -0.024222724 0.0026551338 -0.013412175
000380 e6 0e cc ba a1 28 d1 bc d5 93 66 3c 40 94 8f bc
       -0.0015568405 -0.025532069 0.014073332 -0.017526746
000390 5a e7 b2 bc 57 97 f8 3c 38 b2 ac 3c df 69 eb bb
       -0.021838833 0.030345602 0.021081075 -0.0071842517
0003a0 9a e0 0d 3d d8 ee cd 3c 9b a3 20 bc c1 2c c4 bb
       0.034638025 0.025138304 -0.009804632 -0.0059867804
0003b0 59 c3 be bc 86 f2 3a 3c db 24 b9 bc a3 ba 61 b9
       -0.023286508 0.011410361 -0.022600582 -0.000215272
0003c0 20 00 4e 3c 2b 3f fb bc 46 e8 e7 bc ae 61 19 3d
       0.012573272 -0.03066977 -0.028308999 0.03744667
0003d0 1d b4 8a bc 1d 20 dd 3c bb af ac bc 74 71 58 3c
       -0.016931588 0.026992852 -0.021079889 0.013210643
0003e0 af be 88 3c fc 58 a3 ba e7 42 b6 3c d8 50 03 3c
       0.016692488 -0.0012462432 0.022248698 0.00801488
0003f0 73 f2 90 bc 0d e9 11 3c 4d 09 a5 3c 74 0e 4a bc
       -0.017693734 0.008905661 0.020146037 -0.012332547

bias f4 [128]
000000 ba 22 2e bd c3 8a e3 bc 81 3d f4 3c 4a 63 07 bc
       -0.042513587 -0.027776128 0.029814484 -0.008263418
000010 67 af 1f bc 09 f7 e3 bb 31 d6 e2 bc fc 2d 84 bc
       -0.009746409 -0.006956939 -0.027690025 -0.016135208
000020 e9 5a 31 3c 38 98 15 bc 1e 2f f2 3b f7 59 04 bd
       0.010824897 -0.00913053 0.0073908707 -0.03231236
000030 f0 c5 e3 3a 7e eb 4b bc 0c 74 88 bc 9c 37 64 bd
       0.0017377716 -0.012446282 -0.016656898 -0.055717096
000040 9a 59 47 bd 8c 79 a5 bb 93 70 a1 3c e6 eb 37 bb
       -0.048669435 -0.00504989 0.019707 -0.002806419
000050 63 d7 ad bc 41 22 0e bb 4a b1 b1 3c aa 04 d9 bc
       -0.021220868 -0.0021687897 0.021690983 -0.026491482
000060 67 32 c3 bc e9 86 c0 bc a3 55 5f 3c 05 be cb bc
       -0.023827745 -0.02350183 0.013631257 -0.024870882
000070 c8 c3 5c bc 5b f2 6f bc f5 61 9e bc ab bd a7 3b
       -0.013474412 -0.014645184 -0.019333819 0.0051190457
000080 04 9e a3 3b a1 22 dc bc 98 4d ce 3c 15 e0 07 bc
       0.004993202 -0.026871981 0.025183484 -0.008293171
000090 54 79 6b bd 01 c2 23 bd 44 c0 0b bd b4 9a 0e bd
       -0.057488754 -0.03997994 -0.034118906 -0.034815505
0000a0 df a9 1b bc 47 7a 11 3c 9b a3 82 3c 4f 8b 8d 3c
       -0.00950095 0.008879251 0.015947154 0.017278342
0000b0 71 31 b0 3a d6 7a 87 3b f1 34 25 bd ab 98 21 bd
       0.0013442469 0.004134516 -0.040333692 -0.039452236
0000c0 fe 3a 96 3c b4 75 63 3c 1e 43 d4 bb 3a df 90 bb
       0.018338677 0.013883043 -0.0064777276 -0.004421142
0000d0 e2 f2 86 bc 47 6d b9 3c 13 08 b2 bd a6 7c ef 3c
       -0.016473237 0.022635115 -0.08692946 0.029234242
0000e0 19 6b a2 3c 60 20 b6 bc 96 95 6a bc 98 22 8f bc
       0.019826459 -0.022232234 -0.014317891 -0.01747255
0000f0 5d 97 8b 3b b7 69 1d bd 0c fc ad bd 8b 38 cf 3b
       0.0042599873 -0.038430896 -0.0849534 0.006323879
000100 45 d5 93 bc fb 16 8f bc 4e 15 34 bc ce 39 7d bc
       -0.01804603 -0.017467013 -0.010991408 -0.015455676
000110 c4 32 fa bb 90 a8 5b bc 08 23 0e bc 9e a4 ca 3c
       -0.0076354463 -0.013406888 -0.008675344 0.024736699
000120 32 18 2d bd 97 fe 56 bc 62 e9 a4 bc 8c 8d 8b 3c
       -0.042259403 -0.013122222 -0.020130817 0.017035268
000130 e6 77 93 3a ea ca d5 3c 2f 9e b5 bc a6 2f 0b bd
       0.0011250942 0.026097734 -0.022170154 -0.033980988
000140 af 33 89 3c 67 33 3c 3c 52 39 cf 3c db da 47 3c
       0.016748277 0.011486865 0.025295887 0.012198175
000150 c3 3d 1b bd fb a3 8c bd ac 6c 8d bd 66 af 9c 3c
       -0.037900697 -0.06867214 -0.06905493 0.019126605
000160 e9 6e 6a bc 86 ed 0e bd bb 48 b1 bc 2e e0 1a bc
       -0.01430867 -0.03489449 -0.021641126 -0.009452863
000170 b3 f0 89 bc 5d cb c5 3c a9 34 12 bd c1 ef cd bc
       -0.016838407 0.024144823 -0.035694752 -0.025138738
000180 d7 53 c5 bd 03 b3 2e bc 75 0d ad bc 20 25 db 3c
       -0.09635132 -0.010662797 -0.02112458 0.026751101
000190 7d 52 65 3b e3 84 35 3d 6a a8 c2 3c 8e c4 4f bc
       0.0034991794 0.044316184 0.023761947 -0.01268114
0001a0 ab e3 e5 3b 4f 4b 45 3c 65 26 7c 39 a5 4d 71 3c
       0.0070156655 0.012041881 0.00024046896 0.014727985
0001b0 e3 64 eb 3c 8d 6c e8 3a 11 e7 a9 3c 3c 2b f8 bc
       0.02873463 0.0017732546 0.020740064 -0.030294053
0001c0 aa 07 9e bd 63 10 28 3c 95 f9 a2 3a b2 f2 b0 bc
       -0.077163056 0.010257813 0.0012434 -0.021600101
0001d0 a4 43 b7 bc be 91 c0 3c 0e 51 06 bd 94 0b 12 bc
       -0.02237112 0.023506995 -0.032792144 -0.008913893
0001e0 1b 7c e2 bc 02 f7 fc bc 48 ea 93 bc f5 d5 2f bb
       -0.027647069 -0.030879501 -0.01805605 -0.002683041
0001f0 0c 5c b2 bc 1f 46 e8 3b e7 a9 c0 3c d4 b9 43 bc
       -0.021772407 0.007088437 0.023518516 -0.01194616

weight f4 [64, 128]
000000 1b 43 88 bd a1 92 9b 3d da 0e 40 3d a9 3c 44 bd
       -0.06653424 0.075963266 0.046889164 -0.047909413
000010 b4 d5 9c bc a6 6c 7b 3d 61 9d 04 3d 05 b4 3c bc
       -0.01914487 0.061382912 0.03237665 -0.011517529
000020 4e 6b 07 bd 83 7a d4 3c 72 9a 8f 39 2d 06 44 3e
       -0.033061318 0.025937324 0.00027390156 0.19142981
000030 b4 19 78 3d 1b 87 da bc 61 95 ae 3c 57 da c7 3d
       0.060571387 -0.026675751 0.021311464 0.09758442
000040 be 6d a9 bd 4f 6e 6a bd 8c f6 a4 bd 43 af e1 3d
       -0.08272885 -0.057234105 -0.080548376 0.11019757
000050 8e f6 0e 3d 59 31 2b 3d 8b b8 a4 3d c1 bf 6a bd
       0.0349031 0.04179511 0.08043011 -0.057311777
000060 bb 2d 9a 3d 84 93 a9 bd bb 5e 7a bd 51 aa 67 bc
       0.07528254 -0.082800895 -0.0611255 -0.014139728
000070 59 c8 79 3c 8b 70 3d bd b4 49 89 3c b0 4b a4 bd
       0.0152455205 -0.046249907 0.016758777 -0.08022249
000080 7f ac 9d bd ed 31 64 bd d3 0a 97 bc 06 4e 13 3d
       -0.07698917 -0.055711675 -0.018437779 0.03596308
000090 6c 8e 33 3e 7a 7c 1d bd a6 c4 80 bd 79 12 be bc
       0.17534798 -0.03844879 -0.06287508 -0.023202168
0000a0 09 31 fe 3d 33 84 d6 3b 2a 36 9b bd bf 97 92 bd
       0.124116965 0.006546521 -0.0757869 -0.071578495
0000b0 b7 2f a9 3d 35 86 91 3d fd 58 82 3d 8d 62 42 bd
       0.08261054 0.07105676 0.063646294 -0.047457267
0000c0 76 f7 82 3c 41 f4 c9 3c cb 98 68 bd b8 ff 8c bd
       0.01598714 0.024652602 -0.05678634 -0.06884712
0000d0 a5 0c 44 3e fb 16 cf 3c ff 9a 67 3d d7 1b 11 3d
       0.19145449 0.025279513 0.0565443 0.03542694
0000e0 9c 9c 89 3c cc 6e 82 bc 39 65 4d 3d 38 ea bc 3d
       0.01679831 -0.015921973 0.05014536 0.09224361
0000f0 16 23 7c 3d 17 de 2a 3b ca 69 6a 3d a7 12 6d bc
       0.061556898 0.0026072317 0.057229795 -0.014469779
000100 63 d2 95 3d 30 47 2d 3e 2a f4 04 bc ad 25 0d 3d
       0.07315519 0.16921687 -0.008114854 0.03445976
000110 c8 50 a7 bd 5a e9 ff bc 6b c6 e4 bc 72 06 7e 3d
       -0.08169705 -0.0312392 -0.027926644 0.062017865
000120 ff 28 2c bd 65 9d 1d 3c 79 16 a1 3c 91 b2 25 bd
       -0.042031284 0.009620045 0.019664036 -0.040453497
000130 62 2f 69 3d 85 ee aa 3d 4f dc 12 bd 2b 2b 6b 3c
       0.056929953 0.08346275 -0.035854634 0.014353554
000140 fb d2 95 bc 6d 7b e4 3c 98 00 39 3c e4 46 ed 3d
       -0.01828908 0.027890885 0.0112916455 0.11585787
000150 ac a8 17 bd 97 90 db 3d 9a 37 3a 3e f2 31 4a 3d
       -0.037026092 0.10720938 0.18185273 0.049364038
000160 24 1f bb 3c a5 5e 97 bd 59 78 af bd ce 2f 99 3d
       0.022841997 -0.07391099 -0.08567876 0.07479821
000170 ba 4e 28 3d 9a a8 97 bc ce d2 de bb 4a d7 7c 3c
       0.041090705 -0.018513013 -0.006800032 0.015432188
000180 6e 01 03 3e 5b e4 08 3c e1 b3 13 bd 0b d0 45 3c
       0.12793514 0.008355225 -0.036060218 0.012073527
000190 d7 9d 99 3d 95 3f f2 3d ff 64 88 3d 61 96 a8 3d
       0.07500809 0.118285336 0.066598885 0.082318075
0001a0 23 23 07 3d c5 bd 40 3c 1a 38 aa 3d ed 34 89 3d
       0.032992493 0.011763995 0.08311482 0.06699548
0001b0 93 1c a9 3d 76 26 bf 3b 44 90 84 3c ad 13 3d 3c
       0.08257403 0.0058334423 0.016182072 0.011540336
0001c0 bd 1b 1b 3e b2 13 38 3b 61 da 78 3c 33 86 f6 3c
       0.151473 0.0028087911 0.015188784 0.030093288
0001d0 f0 c6 c6 bc c3 b9 d6 3d 51 eb 69 3d a5 8a b3 3d
       -0.024264783 0.1048465 0.05710918 0.08766679
0001e0 40 0e ab ba e0 2d 2d 3c 1b 98 16 3c be 09 5a bd
       -0.0013050511 0.0105700195 0.009191538 -0.053231947
0001f0 9e 7d dd bc e4 7c 83 bd 1b 0f a6 bd 46 48 8e bd
       -0.027037438 -0.06420305 -0.0810835 -0.06947379
000200 20 28 ad bc 9c 79 17 bc c3 85 a3 bd 7c cb 2e bd
       -0.021137297 -0.0092453025 -0.079844974 -0.042674527
000210 1b 33 9a 3d d7 00 32 3d a2 11 a1 bd 26 20 1d 3d
       0.07529279 0.043457832 -0.07864691 0.038360737
000220 d5 32 bf 3d e6 1a 7f 3d d8 60 98 bd f6 86 2c 3e
       0.09335867 0.06228151 -0.074403465 0.16848359
000230 5a 8b 97 bd 42 95 bb bc a3 f5 35 3b 26 a3 fc bd
       -0.07399626 -0.02289832 0.002776482 -0.123358056
000240 d0 6d de 3d 68 ef dd 3b a8 30 86 bc ba 00 ee 3c
       0.10860789 0.006772924 -0.016380623 0.02905308
000250 07 13 54 bd 62 bb 69 3c fb ec 61 bc e3 d4 d7 3c
       -0.05177596 0.014265867 -0.013789411 0.02634663
000260 6c 75 85 3d 97 45 37 bc 0b 94 37 bc 7a 2c 2a bd
       0.06516537 -0.011186025 -0.01120473 -0.041546322
000270 44 6d 9e 3d 64 e1 a9 3d e9 a7 ee 3b b9 70 bd 3d
       0.077356845 0.08294943 0.0072832 0.09250016
000280 42 db 8f bd c5 17 7a 3d bf 6b 89 3b a7 09 69 3d
       -0.07024242 0.061057825 0.0041937525 0.05689397
000290 48 38 9a 3d 7a 17 44 3c 15 f2 89 bd a7 74 80 3d
       0.07530266 0.011968488 -0.067356266 0.0627225
0002a0 dc bc fd bc 94 6a 7e bd 05 d8 5a 3c f2 e9 7e 3d
       -0.030973844 -0.06211336 0.013357167 0.062234826
0002b0 b8 40 14 bd ae ac 80 3c 01 c1 a7 3b 43 77 b8 bc
       -0.036194533 0.01570734 0.0051194434 -0.022517806
0002c0 d4 99 7c 3d 2b 5f a8 bd dc 2f 9b bd 1a 16 14 bc
       0.06167014 -0.08221277 -0.07577488 -0.009038473
0002d0 69 d2 da 3c 75 06 96 3d 49 aa 6c 3d e1 54 15 3d
       0.02671166 0.0732545 0.057779584 0.0364579
0002e0 63 45 83 bd ff a9 39 3d 76 b8 7b 3d 5e 5f 9a bd
       -0.06409719 0.045328137 0.061455213 -0.07537721
0002f0 ba a1 84 bd 25 4f df bc 61 07 17 3e 86 ca a3 bd
       -0.064761594 -0.027259419 0.14748909 -0.07997613
000300 ab e1 d6 3b 31 0b 5e bd 8f 49 53 3d 10 e7 17 bd
       0.0065576634 -0.05420989 0.051583823 -0.037085593
000310 92 32 27 bb 97 66 aa 3d c1 ee 7c 3d ea 37 2e 3d
       -0.002551232 0.08320349 0.06175113 0.042533793
000320 f4 2c 8b 3c fd 02 86 bd a6 b6 9c bd e2 83 26 bd
       0.016989209 -0.06543539 -0.07652025 -0.040653117
000330 f5 80 84 bd b3 40 07 bd 8a 1a 16 bc 76 ad b8 3d
       -0.06469909 -0.033020686 -0.009161601 0.0901746
000340 fd 73 8c bd 95 c5 6f 3d ba c9 27 3d 8b 0f 08 3d
       -0.068580605 0.05853804 0.040963866 0.033217948
000350 a0 0a 90 bd 72 39 9a 3d 92 1d 76 3b 52 1e 62 3d
       -0.070332766 0.07530488 0.0037554246 0.055204697
000360 6d b6 54 bd d2 f4 cb 3d 6f 64 1c 3d 2e d8 19 bd
       -0.051931787 0.09958805 0.03818172 -0.03755968
000370 a9 61 93 bc 8b f4 90 bd ce 93 6f bd e4 06 84 bd
       -0.017990904 -0.07077893 -0.058490567 -0.06446627
000380 43 71 46 3e f9 57 0a bd b1 50 b5 3d ad 29 ad 3c
       0.19379143 -0.033775304 0.08853281 0.021138037
000390 70 48 92 3d 41 90 71 3b 23 11 b5 3c ce 3a d6 3c
       0.071427226 0.0036859664 0.022102898 0.026151087
0003a0 0e d5 4a bd 4e c7 cb 3c e1 be f5 3c cb 30 94 bc
       -0.04951959 0.02487531 0.029998245 -0.018089673
0003b0 66 bf 35 bd 26 71 5b bb 42 17 25 3d 78 bb fa bc
       -0.044371985 -0.003348419 0.040305384 -0.03060697
0003c0 29 50 0b 3e 74 18 99 3d 91 52 96 bb ac e5 89 bd
       0.13604797 0.07475367 -0.0045874794 -0.067332596
0003d0 77 ec 78 bc 34 b9 b0 3d 2e 4b 5b 3b 09 76 3f 3d
       -0.015193096 0.08629075 0.0033461559 0.046743426
0003e0 20 ee 6c 3d f8 f8 6b bc 49 57 f4 3d 2a f4 80 bc
       0.05784428 -0.0144026205 0.11930711 -0.015741426
0003f0 f4 ed 8f bd b2 aa 85 3d 07 9a a9 bc 49 1a f3 bb
       -0.07027808 0.06526698 -0.020703329 -0.007418905

bias f4 [64]
000000 d6 1c fc bc a6 7e 37 bd a3 10 74 3d a1 77 0e bd
       -0.030775469 -0.044798516 0.05958618 -0.034782056
000010 23 6c 01 3d 5e 67 9e 3d 48 dd 20 3d 12 98 52 3e
       0.031597268 0.077345595 0.03927353 0.20565823
000020 67 11 de bd 30 e4 39 3d e7 88 a5 bd 8e f1 03 3e
       -0.10843163 0.045383632 -0.08082753 0.12885115
000030 af 5d 2e bd 93 92 77 3d f7 2b 1d bd 67 1f d1 b9
       -0.042569812 0.06044252 -0.038372006 -0.00039886983
000040 41 d4 bd 3c ba 94 64 3d 30 2e a0 3c 46 0b 8d 3d
       0.0231725 0.0558059 0.019553274 0.06886916
000050 ef 40 d8 3d 7e c3 1e bb 86 f6 18 3e ef 6e b8 3c
       0.1055926 -0.002422541 0.14937791 0.022513835
000060 c0 f0 2f 3e 32 f2 e7 3d 01 37 9d 3d bb e8 3b bc
       0.17181683 0.11325492 0.07676507 -0.0114690615
000070 b9 82 1f 3e f2 2e e3 bc dc 5c 9f bc 46 03 48 be
       0.1557721 -0.027732346 -0.019453458 -0.19532499
000080 8d 3a 8e 3c 3d a5 9f 3c 82 70 cd 3d eb a3 73 bd
       0.017361904 0.019487971 0.10031225 -0.059482496
000090 a2 68 a8 bd 69 cd cc bc 7d eb 33 3d 7e 1c af bc
       -0.08223082 -0.025000291 0.04392575 -0.02137589
0000a0 fc b2 00 3e a2 a5 f8 bd b2 65 ba bc db 00 c3 3d
       0.12568277 -0.12140967 -0.02275357 0.095216475
0000b0 99 c4 be 3c c7 8b 84 bd 48 a9 34 3c 56 78 a9 3d
       0.023287104 -0.06471973 0.011026688 0.082749054
0000c0 01 24 0b be c3 1c b6 bc 6b db 1a 3e 0b 0e 67 3d
       -0.13587953 -0.022230512 0.15122764 0.056409877
0000d0 c4 08 b3 3d 5d 0c 27 3b 88 f1 aa ba 3d 7a 3f 3c
       0.08741906 0.0025489547 -0.0013041953 0.011686859
0000e0 05 4b f8 3d f3 b3 c1 bb c3 c1 82 bd 91 99 23 bd
       0.12123684 -0.005911344 -0.06384613 -0.039941374
0000f0 63 f4 96 bc 80 30 04 3e 35 f2 94 3d 35 a4 0e 3d
       -0.01842708 0.12909126 0.0727276 0.03482457

weight f4 [12, 64]
000000 c7 c3 08 be a6 c1 08 be 46 b7 71 bd be a5 64 bd
       -0.13355933 -0.13355121 -0.059012674 -0.055822127
000010 b3 eb b9 bd fd df d8 bd 2e ee b9 3d e4 2f c4 3d
       -0.09078159 -0.105895974 0.09078632 0.09579447
000020 bc b0 e0 bd a9 ee df bd 73 87 b7 bd bd 05 bc 3d
       -0.109712094 -0.10934193 -0.08961382 0.09180782
000030 56 93 76 bd f4 c6 5b bd eb de a9 3c 64 da bf bc
       -0.060199104 -0.053656533 0.020736178 -0.023419566
000040 a9 6b 85 bd 4d 6b b5 bd 6a ba f7 bd ea ef b4 3b
       -0.06514675 -0.088583566 -0.120961025 0.005521764
000050 d6 6a dd bd 30 f1 61 bd 85 ac de 3d f2 94 41 3d
       -0.10811393 -0.055161655 0.10872749 0.047261186
000060 e8 02 71 bd 0e b2 b8 bc fb c8 13 bd 45 82 e0 bd
       -0.058840662 -0.02254584 -0.03608034 -0.10962347
000070 36 5c 12 bd 00 37 df 3d f6 0f ed bc 24 cd a1 bd
       -0.03573247 0.10899162 -0.028938275 -0.079004556
000080 86 7b 0e be 71 d0 9c bb fc 89 85 bd be 0a 81 bd
       -0.13914308 -0.0047855903 -0.06520459 -0.06300877
000090 6e 65 87 bd 77 8f 49 bd 24 a5 87 3b 40 72 58 3d
       -0.06611143 -0.049209084 0.0041395593 0.052843332
0000a0 c0 0c bc 3d 3a ef bf 3d 74 9e 8e 3d 9f 40 26 bb
       0.09182119 0.09371801 0.06963816 -0.0025368107
0000b0 7e b2 b8 3d bc 0f a6 bd 62 72 e4 bd 56 a4 e4 3d
       0.0901842 -0.0810847 -0.11154629 0.11164157
0000c0 05 63 b6 bd b9 ec e5 bd 2a b8 00 3d 12 5d fe bd
       -0.08905605 -0.11226792 0.031425633 -0.124200955
0000d0 02 54 4c 3d 91 cf b0 3d 36 84 24 3d 16 a8 93 bd
       0.049884804 0.0863334 0.04016515 -0.07209794
0000e0 cd 61 f0 bd 51 7c 3b bc 04 d9 dd bd b1 05 cc bc
       -0.11737404 -0.011443214 -0.10832408 -0.024905058
0000f0 91 7b 04 bc 56 98 4b 3d 6a 0d 80 bd a7 b7 2d bd
       -0.008086101 0.049705826 -0.062525585 -0.042411473
000100 b3 a1 13 3e 72 17 ca 3d be ef c5 3d 90 de 0b 3e
       0.14417152 0.09867753 0.09664868 0.1365912
000110 da d9 81 3d a6 9b 43 3e 76 31 cc bc d3 a2 43 bb
       0.0634038 0.19102344 -0.024925929 -0.002985169
000120 57 8f 98 bd 13 ee 09 bc 80 95 00 be ba 4f 46 3e
       -0.07449215 -0.008418578 -0.1255703 0.19366351
000130 60 22 74 3d e2 30 13 3e d3 2f 76 be 09 5a f4 3d
       0.059603095 0.14374116 -0.24041681 0.11931235
000140 4e 86 0e 3e bb c4 02 be 26 fb 5d 3c 11 c6 24 3e
       0.1391842 -0.12770359 0.013548648 0.16091181
000150 79 f6 08 3e af d8 bb bd dc b4 5f be 84 40 1c ba
       0.13375272 -0.091721885 -0.21846336 -0.00059605413
000160 66 81 8d be 38 e6 38 3e d3 c9 e3 bd 0c a2 c4 3c
       -0.27637786 0.18056571 -0.11122479 0.024003051
000170 30 09 77 be 7a e6 6e 3d 33 7e 15 bd 3d e1 14 3e
       -0.24124599 0.05832527 -0.036497306 0.14539047
000180 28 6e 12 be e5 2a 51 3d 41 f8 8f 3d 9c 76 a8 be
       -0.14299834 0.051066298 0.070297725 -0.32902992
000190 a6 c4 5c bd aa 16 3b 3e c1 a5 4b 3e dc 60 96 bd
       -0.053898476 0.18270364 0.19887449 -0.07342693
0001a0 d7 35 75 be 4b f6 8a 3d da 05 8f 3e 9e 5a 3b 3c
       -0.2394632 0.06785258 0.27934152 0.011435179
0001b0 ba 49 16 bd 20 36 88 3d 42 95 88 3d 41 a9 85 be
       -0.036691405 0.066509485 0.06669094 -0.26105693
0001c0 44 23 83 3e f2 1b 08 3c bf e4 4f be cd 18 21 be
       0.25612843 0.008307444 -0.20302103 -0.15732117
0001d0 70 0f 3c 3d e9 55 48 3d b0 51 3c 3e b4 52 9d bc
       0.04591316 0.048910055 0.18390536 -0.019204475
0001e0 f0 9f ef bc 06 d0 52 3d 49 30 09 bd da 03 bd 3d
       -0.029251069 0.051467918 -0.033493314 0.0922925
0001f0 9e 09 cb 3c b6 a2 e9 bc fe 15 fa 3d f1 c0 c4 3d
       0.02478486 -0.02851997 0.12211226 0.09607113
000200 9d 51 19 bd 34 6a da bb 97 42 06 be 19 0e 81 bd
       -0.037431348 -0.0066654924 -0.1311134 -0.06301517
000210 99 d0 c8 bb a6 72 64 3c d6 7f 4b 3d ba c0 85 bd
       -0.0061283824 0.01394335 0.04968246 -0.065309
000220 7c 71 33 3d e6 96 14 bd 60 db 1c 3d b6 0b 99 3c
       0.0438094 -0.03627672 0.03829515 0.018682342
000230 91 54 88 3d 27 2b 76 bc 66 37 72 3d 54 58 76 bd
       0.06656755 -0.015024937 0.059134863 -0.06014283
000240 ec 0c fe bb 67 23 1a be 38 1d e2 bd 78 fc 62 bd
       -0.0077530053 -0.15052567 -0.11040729 -0.055416554
000250 7e 68 1e be 57 c9 00 3d aa 95 b0 bd 9d 4b d1 bd
       -0.15469548 0.031442013 -0.08622296 -0.102195
000260 c2 ed 62 3c c6 51 32 bc 2b 46 d5 bd c5 66 f9 bd
       0.013850631 -0.010883754 -0.10413774 -0.12177805
000270 0b 5e b2 bd d2 c9 5e 3d 34 f0 a5 3c a3 fa c5 bd
       -0.087093435 0.05439169 0.02025614 -0.09666946
000280 27 fe a0 3c fa d3 e9 bd 7c 87 8b 3c 87 a7 d3 3c
       0.01965244 -0.114173844 0.017032377 0.02583672
000290 26 fd 8f 3d e1 00 e3 3a 78 99 a3 3d 0c 4e 68 bd
       0.07030706 0.0017318988 0.07988256 -0.056715056
0002a0 94 ef bb bd 60 a5 fb 3c b8 33 8a 3d 15 51 1e be
       -0.09176555 0.030718505 0.06748146 -0.15460618
0002b0 04 9f 9f bd 76 35 f0 3d b6 ff ca 3d d9 05 b8 bc
       -0.07794002 0.11728947 0.09912054 -0.022463726
0002c0 c7 24 e6 bd 5e 12 64 bc 7f 04 2c 3d 5a b3 0f bd
       -0.112374835 -0.013920395 0.041996475 -0.035083152
0002d0 2e 36 58 bc de 9e 03 bd 48 8b 01 be d3 ba cb bd
       -0.013196511 -0.03213393 -0.12650788 -0.09947743
0002e0 02 db 0c be ed f0 9c 3c 36 e9 fe bd c4 48 dd ba
       -0.1375542 0.019157851 -0.12446825 -0.0016882648
0002f0 b5 8a 80 3c 20 f7 9a 3d 63 09 59 bd e1 53 49 3d
       0.01569114 0.075666666 -0.052987467 0.04915226
000300 b0 7c 91 bd bc f6 75 bb 13 a9 49 3d 57 2a a2 3e
       -0.071038604 -0.0037531098 0.049233507 0.31672928
000310 9c 64 c9 bd 62 6e 24 bd 2e 42 94 bd 61 70 10 be
       -0.09833643 -0.04014433 -0.07239185 -0.14105369
000320 86 a9 5a bd 8e 8d 06 bd 6c 18 e3 bd 85 53 23 3e
       -0.053384326 -0.03284984 -0.110886425 0.15949829
000330 c2 6a ce bd 08 e9 b7 3d 2b fc 1c be b0 20 f3 3d
       -0.10078956 0.08979994 -0.1533057 0.11871469
000340 f7 bd 28 3d d3 af 9c 3d a9 6f ed 3d 05 23 f0 3d
       0.04119679 0.07650723 0.11593563 0.117254294
000350 b0 1f 24 3b c6 97 08 3e 1f 01 ad be 36 f7 db bd
       0.0025043301 0.13339147 -0.33789918 -0.10740511
000360 59 d9 9f be 4b f1 d2 bd 25 e8 28 bf e6 ab fc 3d
       -0.3122051 -0.10299929 -0.65979224 0.123374745
000370 9c 90 ee 3d 4c 1e bb 3c ac 99 12 3e e6 83 d3 bd
       0.11648676 0.022841595 0.14316434 -0.10327892
000380 8a df 36 be 31 bf 18 3e 1d 4f b1 3c c9 fc 1b be
       -0.17858711 0.14916684 0.02164417 -0.15233149
000390 73 e4 dd bc c3 d3 97 bc db ce 8d 3e a3 11 68 3d
       -0.027086472 -0.018533593 0.2769688 0.056657445
0003a0 26 77 3f be 44 a0 ca 3d a2 8c a0 3e 4a 40 cf 3d
       -0.18697795 0.098938495 0.31357294 0.10119684
0003b0 6f b6 47 3d 73 e1 ca bc 24 fc b8 bd f4 bb 80 be
       0.048757967 -0.024765706 -0.09032467 -0.25143397
0003c0 ca a1 8b bd a7 37 15 3d 4b 44 e7 3c d2 ee 0a bd
       -0.06817968 0.036430027 0.028230807 -0.033919163
0003d0 e0 ea 84 be c6 f9 0b 3e c0 43 a8 3c bd 16 aa 3d
       -0.25960445 0.136695 0.020540118 0.08305118
0003e0 1a f1 a6 3d df f5 be 3d 16 57 a9 3c 3c bd dc 3a
       0.08151455 0.0932424 0.020671409 0.0016841064
0003f0 b1 61 17 3e d3 3d ef bd 32 ce c4 bc e3 64 0b 3e
       0.1478336 -0.11681714 -0.024024103 0.13612704

bias f4 [12]
000000 c0 37 03 bc 1e 65 21 3d 95 40 9f bd eb 66 69 bc
       -0.008008897 0.039403073 -0.0777599 -0.014245729
000010 4d 08 d8 3d 83 68 a5 3d 30 39 a2 3d 70 f7 3a 3e
       0.10548458 0.08076575 0.07921064 0.18258452
000020 2c 02 87 3c 93 ab fa bd c7 19 ee 3d ac c7 24 3c
       0.016480528 -0.122397564 0.116260104 0.010057371

weight f4 [3, 12]
000000 80 7f 03 3e 69 90 9a be ec 08 71 be 00 60 00 be
       0.12841606 -0.301883 -0.2353856 -0.12536621
000010 c5 03 3e 3e 0a 2f 68 3e e6 65 16 be 2d a4 e8 be
       0.18556125 0.22674194 -0.14687309 -0.45437756
000020 3e 8c e4 3d df 70 51 be 23 76 86 3d 2c 24 87 be
       0.111595616 -0.20453213 0.065655015 -0.26394784
000030 61 28 5e 3e 71 06 7a be c6 0f 36 3e 35 95 a1 be
       0.21695091 -0.2441652 0.17779455 -0.31559148
000040 ca 44 87 be a3 80 0c 3e 9c 0c 02 3e d9 8c 8c be
       -0.2641967 0.13720946 0.12700123 -0.27451208
000050 80 3f df bd 02 f4 c7 3d e2 be d3 bd 9f e0 20 be
       -0.109007835 0.09763338 -0.103391424 -0.15710686
000060 7e b7 1a be 1c 23 1e be 8d dd a0 bc 96 ef 96 be
       -0.15109059 -0.1544308 -0.019636894 -0.29479665
000070 7e 0c fa bd 81 09 88 be 5e 76 3a 3e 7d a3 ce 3e
       -0.12209414 -0.2656975 0.18209216 0.40359107
000080 b8 ba 77 3d cb e4 e3 3d 28 68 7b be ae bf 49 be
       0.060480803 0.11127623 -0.24551451 -0.19702026

bias f4 [3]
000000 94 25 85 bd 24 0a 52 3e ce c9 75 bd
       -0.06501308 0.20511681 -0.06000691

weight f4 [12, 3]
000000 e5 08 88 3e 83 34 9a be c4 3c 16 bd 8e 05 f1 be
       0.26569286 -0.30118188 -0.036679044 -0.4707455
000010 94 13 29 bf d1 ef 9b bd dd 91 9d 3e 67 af ec be
       -0.660455 -0.07614101 0.30775347 -0.4622757
000020 20 fd 8d be a3 b2 00 3f 60 02 59 3d 48 2f fa be
       -0.27732182 0.5027258 0.05298078 -0.48864198
000030 97 5b c2 be 5b 69 a5 3c c0 dd 39 3e fc 96 fe bd
       -0.37960503 0.020191839 0.18150997 -0.12431142
000040 f4 e0 cc 3d c6 26 24 bf 56 a6 30 3f 42 8b 19 bf
       0.10003844 -0.64121664 0.6900381 -0.59978116
000050 2e d0 bb 3e f7 cb d3 3d 23 ca 64 be 9a 59 41 be
       0.36682266 0.103416376 -0.22342734 -0.18881837
000060 d6 12 79 be ea a4 9c be d5 d6 b3 3e 28 90 01 3f
       -0.24323592 -0.3059457 0.3512484 0.5061059
000070 bb 33 e0 be f8 4e c0 3e 4c 5f f9 3e 8f 2f 9e 3e
       -0.43789467 0.37560248 0.48705518 0.3089566
000080 09 22 bc 3e 0c 59 e9 bd d4 4e a4 3d 2c 5a ea 3e
       0.36744717 -0.113939375 0.08022848 0.4577192

bias f4 [12]
000000 01 86 2b 3d 70 cb b7 be 87 6a 84 3d 0a 0e 30 3f
       0.041875843 -0.35897398 0.06465631 0.6877142
000010 a0 d9 58 3c aa 63 eb be 66 d3 e9 be 8f d8 62 bf
       0.01323548 -0.45974475 -0.45669097 -0.8861169
000020 ac b0 e0 3e d7 78 db 3e 42 02 11 3e cd 2a 26 3f
       0.4388479 0.4286563 0.14161018 0.6490906

weight f4 [64, 12]
000000 40 5a f0 3d e7 e5 4d bd 01 2c ea bd 23 ba 20 be
       0.11735964 -0.05026808 -0.11434174 -0.15696006
000010 b0 fb 83 bc d2 64 93 be d1 e5 2d 3e da d3 08 bc
       -0.016111225 -0.28787857 0.16982199 -0.008351291
000020 c4 ef 8e be 87 a3 0b be f6 af 1e 3e 01 d7 8f 3e
       -0.27917302 -0.136366 0.15496811 0.28093722
000030 9d db 28 bd c3 70 75 3d 81 ac 01 be aa f3 0f be
       -0.041225065 0.05992199 -0.12663461 -0.14057794
000040 2f 69 97 3e 31 02 e9 be ae 05 bf bd c2 86 1c bf
       0.29572436 -0.45509484 -0.09327255 -0.61143124
000050 91 b6 8d 3d 8b 67 f7 3e 46 72 a5 3d 27 9c 1c 3e
       0.069195874 0.48321185 0.080784366 0.15293942
000060 32 f6 0f bd 69 d9 d2 3c d2 f8 7a bd 33 88 d2 3d
       -0.0351469 0.025738435 -0.06127245 0.10279884
000070 e1 22 21 be 03 42 a7 3c 7b 09 a7 3d 18 c0 d5 bd
       -0.15735961 0.020417219 0.08156105 -0.104370296
000080 13 c5 2f 3e 48 80 28 be fa 22 37 bd 24 54 1e 3e
       0.17165022 -0.16455185 -0.04471109 0.15461785
000090 09 85 2a bd a6 f0 86 be ab 9b 8b bd 69 3b c1 3e
       -0.04163078 -0.26355475 -0.06816801 0.3774064
0000a0 d5 8b 18 ba 26 18 b1 bd d7 7b 66 3d c7 90 a1 3b
       -0.00058191764 -0.08647184 0.056270447 0.004930589
0000b0 9f 2f b0 bd 2f d5 da 3e d7 82 89 be bf 34 3e be
       -0.08602833 0.4274077 -0.26857635 -0.18574809
0000c0 2b 0b 27 3e c1 d4 1b 3e 47 6b 6f be 02 a6 64 3e
       0.16312854 0.15217878 -0.23380767 0.22328952
0000d0 22 a2 40 bd 68 25 0a 3e bc 9b d0 be fd 71 32 3d
       -0.047029622 0.13490832 -0.40743816 0.04356574
0000e0 7c 36 19 bd 31 f9 31 3e 85 31 13 bd c0 24 f6 3d
       -0.037405476 0.17380215 -0.035935897 0.12018728
0000f0 95 a1 b7 3d 8c 0d 87 be ea 2e 5f be 64 1a 9e 3e
       0.08966366 -0.26377523 -0.2179524 0.3087951
000100 29 0f ac bc 03 80 a4 be 05 28 6f 3e 29 c0 11 3e
       -0.021003323 -0.32128915 0.2335511 0.1423346
000110 b5 5f da be 43 f6 b6 3e 5c 34 26 3e 85 62 d8 be
       -0.42651144 0.35734758 0.16230911 -0.42262664
000120 cd 3b 82 3e d7 c3 2e 3e 11 4e 95 bd 43 c2 65 be
       0.2543625 0.17066894 -0.072902806 -0.22437386
000130 a1 df eb 3b fd 9c fa 3d 08 db 88 3e 5d b4 7c 3d
       0.0071982895 0.122369744 0.26729608 0.061695445
000140 9e 52 be 3b ac 10 b5 bc e1 f4 7a be 9c 9f 26 3e
       0.0058081886 -0.022102676 -0.24507476 0.16271824
000150 54 39 ed 3d 4b 9d 8f be 91 6d 71 3e 6c 03 21 be
       0.115832 -0.28049693 0.23576953 -0.15723962
000160 98 ba 53 3c 95 e8 8d bc 50 28 07 bd 89 d8 63 3d
       0.012922905 -0.017322818 -0.03299743 0.055626426
000170 49 2d 3a be a5 b0 f7 3d 81 77 1d 3f 29 4f 68 be
       -0.18181337 0.12094239 0.61510473 -0.22686447
000180 15 c4 5e 3d f5 a5 1c 3e 17 45 9b 3d 53 58 6d be
       0.054386217 0.15297683 0.07581537 -0.23178224
000190 de d3 9b be 63 5b e2 bc 66 eb 92 3e c9 32 ba bd
       -0.3043508 -0.027631467 0.2869522 -0.09091718
0001a0 48 f7 37 3e 72 2b 7b 3e a4 c9 56 be e7 08 41 3d
       0.17965424 0.24528292 -0.20975357 0.04712763
0001b0 44 08 65 bd fc 0f 8c be 80 33 f1 bd 9b ed 55 be
       -0.055916086 -0.27355945 -0.11777401 -0.2089142
0001c0 d9 10 20 be 34 1d a2 3d 00 4a 7a be 7e 2a e9 bd
       -0.15631427 0.07915726 -0.24442291 -0.11385058
0001d0 40 48 8b bb 32 1b a3 bd a0 4b e0 bc 1e 9d e9 bd
       -0.004250556 -0.079641715 -0.02737981 -0.11406921
0001e0 b8 55 3b 3e 03 f9 8f be 07 6e a1 3d 64 68 72 3e
       0.18294418 -0.28119668 0.07882314 0.23672634
0001f0 8a 43 1a 3e f2 58 eb 3e d5 98 95 3e b2 ee 85 bd
       0.15064827 0.45966297 0.29218164 -0.06539668
000200 e9 ed 4d bf 2a 14 c6 be 54 e7 7d 3e 2d a9 55 3e
       -0.8044115 -0.3868726 0.24795276 0.20865317
000210 37 0c 0f bd e1 4e e5 be cc 3a c2 3b c9 3d 13 be
       -0.03492376 -0.44786742 0.0059274193 -0.14379038
000220 9a 61 9d be 6b c5 2f 3e 22 9f 5b bc 03 68 6b bd
       -0.30738527 0.17165153 -0.013404639 -0.05747224
000230 2b 4e bc 3e 20 8b ae 3e c5 12 02 3f 4d c5 6f 3e
       0.36778387 0.3409052 0.5080989 0.23415108
000240 57 2b 28 3e 83 b8 6f bd fb c4 19 3c ff cb 1d 3e
       0.16422783 -0.058525573 0.009385343 0.1540985
000250 f5 f6 0b bd 81 ac 07 bd 0f 8b 84 be db 98 1f be
       -0.034171063 -0.033123497 -0.25887343 -0.15585653
000260 e8 7a a5 3c 46 43 8b 3e 2c fd 10 be e7 16 23 be
       0.020200208 0.27199763 -0.14159077 -0.15926705
000270 d4 b3 cb bd e6 0b 26 be 10 29 2a 3e cf b6 93 be
       -0.09946409 -0.16215476 0.16617227 -0.2885041
000280 e2 73 e5 bd b0 81 80 bc c0 bc 67 be a2 aa 0b 3e
       -0.112037435 -0.01568684 -0.22630596 0.1363931
000290 c8 75 20 3d 54 61 72 3e 88 f9 14 3d d9 7c 8b be
       0.039174825 0.2366994 0.036370784 -0.2724369
0002a0 16 15 23 bd 49 d2 90 3e 39 a5 c6 bb 92 ad 80 be
       -0.03981503 0.28285435 -0.0060621765 -0.25132424
0002b0 f3 aa ba be 57 de 78 bd 1a 4e d8 be 5d e0 43 be
       -0.3645855 -0.060758915 -0.42247087 -0.19128557
0002c0 f8 0d ed 3e 87 cd 8a 3e a8 4a d6 3e 60 c2 9a bd
       0.4629972 0.2710993 0.41853833 -0.07556605
0002d0 30 8e c1 bc 53 d4 b0 3d 74 d2 4d be c1 ae 0c 3d
       -0.02362737 0.08634248 -0.20099813 0.034346346
0002e0 31 a5 c4 bc 67 f9 fb bd 82 4b 6f 3e 73 93 15 3e
       -0.02400455 -0.12303429 0.23368648 0.14607029
0002f0 37 4a cf 3d 6a 07 63 3e 07 29 6e 3e 3e 2f 17 3d
       0.10121577 0.22170797 0.23257838 0.036910288
000300 44 ea 28 be 5d b0 ee 3e 78 14 0d be ad c9 ee be
       -0.16495615 0.4661893 -0.1377734 -0.4663824
000310 14 35 16 3e 81 f4 fa bd a4 f0 c3 be 06 91 fb 3d
       0.14668685 -0.12253667 -0.38269532 0.122835204
000320 03 13 f9 3d bc 1a 58 be d8 81 f4 3d 91 8d 44 bb
       0.12161829 -0.21103948 0.11938828 -0.0029991607
000330 9b 5f 5f be 27 ab c2 3d c2 da 6a 3e 6a 69 2a bc
       -0.21813814 0.09505301 0.22935012 -0.010401109
000340 2d 65 b2 be 05 41 87 3b 03 c2 4f be 71 95 bb be
       -0.34842816 0.004127624 -0.20288853 -0.36637452
000350 48 cc a5 3d 87 8f b0 3e 4b aa 53 be 6d 0b 52 be
       0.08095604 0.34484503 -0.2067043 -0.20512171
000360 76 be 6f 3e de 5e db bd 9f af 34 3e 57 48 95 3e
       0.23412499 -0.10711454 0.17645119 0.29156753
000370 f5 36 97 3e 20 4e 0c 3e b4 1b a2 be 9c 74 94 be
       0.29534116 0.13701677 -0.3166176 -0.28995216
000380 f6 31 ea 3d c5 3f 9a bd b0 34 4f be f1 d9 eb bd
       0.114353105 -0.07531694 -0.20234942 -0.115161784
000390 81 bb 45 be 9a 38 1e 3e 8b f5 9a be 4d 66 14 bf
       -0.19309808 0.1545128 -0.3026546 -0.579686
0003a0 f5 d9 e9 3e 01 26 ab be 24 41 a1 3d 45 cd 7c 3e
       0.456741 -0.33427432 0.07873753 0.24687679
0003b0 2a 08 f0 3d 92 22 f6 3d ea 51 d2 bd 1e 59 51 3d
       0.11720307 0.120183125 -0.1026953 0.05111038
0003c0 85 bd 70 bd da 6a bc 3d 07 65 c0 3d 86 60 50 3e
       -0.05877449 0.09200068 0.093942694 0.20349321
0003d0 34 31 b8 be cd a1 93 bd 40 51 0c bd 76 92 a8 be
       -0.3597504 -0.072085954 -0.034257174 -0.3292424
0003e0 77 77 8f 3e 27 00 14 be 39 5e fb bc 51 9f e6 bd
       0.28020832 -0.14453183 -0.030684577 -0.11260856
0003f0 94 a1 82 3d 56 a6 c9 3d 1c cf 48 be e9 7a 09 bf
       0.06378475 0.09846179 -0.19610256 -0.5370317

bias f4 [64]
000000 ee fd 5b bc a1 35 b7 3e a9 30 2a 3f 37 db 18 3f
       -0.013427241 0.35783103 0.664805 0.59709495
000010 09 17 cc 3e b4 14 dc 3e f7 ce 60 bf 86 bd 00 3f
       0.39861324 0.42984545 -0.87815803 0.5028919
000020 b6 2a 19 3d e4 dc 35 be e8 5c d0 be 44 a1 d3 3d
       0.037394248 -0.17760044 -0.40695882 0.10333493
000030 77 ae 23 3f 18 b5 14 3d a0 90 df 3e c7 25 bc 3d
       0.6393809 0.036305517 0.43665028 0.09186893
000040 d0 47 08 be 64 0b 14 3f b6 76 82 3e 7a 50 ab be
       -0.13308644 0.5782988 0.25481194 -0.33459836
000050 ac 3d ef 3e 06 88 40 3d ac 61 0a 3f 5e 69 c7 3d
       0.4672674 0.047004722 0.54055285 0.09736894
000060 cd 0e e7 3d 28 14 b9 3d ee 9b 65 bd 3a b0 15 be
       0.1128212 0.090370476 -0.05605691 -0.14618006
000070 5e 3b 7c bc 41 40 56 3f 95 64 3a bf 61 68 02 3f
       -0.015395014 0.83691794 -0.72809726 0.5094052
000080 7c 1e bc be 01 9c c8 3e 65 ef c3 3e 73 3a 8a 3e
       -0.36742008 0.39181522 0.3826858 0.26997718
000090 94 c0 3c 3e 10 ec ee 3e 02 aa 49 3e 0e a3 21 bf
       0.18432838 0.46664476 0.19693759 -0.63139427
0000a0 09 78 ad bd bf 4c fe bc c5 8c bc 3e a2 09 8b bd
       -0.084701605 -0.031042455 0.3682615 -0.06788947
0000b0 73 7d 12 3f 1a 0e 06 be f1 b3 43 bf 68 8b 23 3e
       0.5722267 -0.13091317 -0.76446444 0.15971148
0000c0 d9 10 1a 3e f7 6f 00 be e9 50 41 3e 67 27 a2 be
       0.1504549 -0.12542711 0.18878521 -0.31670687
0000d0 2b 0f 5e be a4 a9 a2 bd e1 4f 9b be ad 63 c3 3c
       -0.21685474 -0.07942513 -0.3033438 0.02385124
0000e0 0b 05 13 be fc c8 17 3f df 55 82 3e 64 4c c7 3e
       -0.14357392 0.5929105 0.2545614 0.3892547
0000f0 06 84 88 bb 86 19 9b 3e 9b 6e 34 3e 3d 3e f7 3e
       -0.004166129 0.3029291 0.17620318 0.48289672

weight f4 [128, 64]
000000 1c ff 0c bd be 9d b6 3d ca df 00 be b0 ba 45 3e
       -0.03442298 0.08916806 -0.12585369 0.19309497
000010 9c 6f 14 3e 47 6c 48 3e bf 42 55 3d 11 02 38 3e
       0.144957 0.19572555 0.052065607 0.17969538
000020 83 08 c4 3d e0 40 b6 bc bc 22 0c be cd a7 87 be
       0.09571936 -0.022247732 -0.13685125 -0.2649521
000030 17 fe 26 3e 58 bb fc 3d 72 e4 1c be 31 9c 27 3e
       0.16307865 0.123404205 -0.1532152 0.16368176
000040 2a fe 34 3e b7 ee dc 3d bf d4 28 bd 05 a1 59 3d
       0.17675081 0.10787719 -0.041218515 0.053132076
000050 50 86 86 3d 31 31 15 3c 74 36 91 3e ba 17 4a be
       0.06568587 0.009105966 0.28361857 -0.19735613
000060 03 b5 78 be f4 bd cb 3d ee 5a d7 3c 41 5b cd 3d
       -0.242878 0.0994834 0.026288476 0.10027171
000070 3f b8 f7 3d 01 62 bd be 34 88 30 be 50 4f 2e 3e
       0.12095689 -0.36988834 -0.17239457 0.17022443
000080 df 8a 47 be a5 4f 49 3e e7 5f 32 be 6f cb 79 bd
       -0.19486569 0.19659288 -0.17419396 -0.060985025
000090 21 dd 27 bd 9f 73 1e 3e e3 32 1b 3e 2a 46 34 bb
       -0.04098237 0.15473793 0.1515613 -0.0027507641
0000a0 34 e6 c1 3d 6a 74 71 3c 0b 8f a7 3e d7 2e 08 be
       0.09467736 0.014737228 0.3272632 -0.13299118
0000b0 d1 6c 3d bd 8d 87 07 3d 68 f5 4e 3e 96 7e 88 bc
       -0.046246354 0.033088256 0.20210803 -0.016661923
0000c0 d5 34 91 bb 3a b0 1f 3d ec 3e 6a bd b3 00 26 3c
       -0.004431347 0.038986422 -0.057188913 0.010132003
0000d0 8d 4c 19 bb 00 31 a5 3d 7f 01 8b bd 80 70 1d be
       -0.0023391575 0.08065987 -0.06787395 -0.15374947
0000e0 57 87 2c bd 36 0c 45 be 7c 61 17 be 20 fc af 3d
       -0.042121258 -0.1924294 -0.14783281 0.08593011
0000f0 41 90 6d 3d 97 72 69 bd 8e 3e 34 3d 80 5a ba 3c
       0.0579989 -0.056994047 0.04400497 0.022748232
000100 32 ee 91 3d 0d 58 77 bd 79 c5 40 bd 3d 75 ab 3d
       0.0712551 -0.060386706 -0.047063325 0.08371971
000110 d2 34 d4 bd 6e b8 c3 bd 1a 07 a6 bc 40 27 38 3d
       -0.10361637 -0.095566615 -0.020267058 0.044959307
000120 b9 52 19 bd 3e a5 d9 3d 98 7c a2 3c 80 c9 b2 3d
       -0.037432406 0.106272206 0.019834802 0.08729839
000130 2c 00 07 bd 70 55 fd bc 86 1b 51 bc fc 2d 09 bd
       -0.03295915 -0.030924529 -0.01276291 -0.03349112
000140 ba d2 e3 3d 80 e3 40 3d 9d c2 63 3c 60 4e 72 bd
       0.11124177 0.04709196 0.01390138 -0.059156775
000150 27 80 e9 bd 3e 3d f7 bd 45 ea a7 bc b0 53 54 3d
       -0.11401396 -0.12072228 -0.02049745 0.051837623
000160 2c 78 5f 3d 5c e9 69 bd 66 6b 85 3d 18 d2 b7 bd
       0.054557964 -0.057107314 0.06514625 -0.08975619
000170 dc b4 c8 3b 01 ee 3f 3d d0 f9 d4 bc 42 bc 03 bd
       0.0061250757 0.046857838 -0.025998026 -0.03216196
000180 47 8e da bc 31 4d 82 bc 69 71 b7 3d 05 ca bb bc
       -0.026679171 -0.015905948 0.08957178 -0.022923479
000190 27 cb b9 3d 06 21 44 bc 9b 0c c4 bd 60 b2 a5 bb
       0.09071951 -0.011970764 -0.09572717 -0.0050566643
0001a0 de 03 cb bc 9a 6b a3 3d 98 07 af bd a2 c6 8d bd
       -0.024782117 0.07979508 -0.0854637 -0.06922652
0001b0 d4 24 ea 3d 38 9a 1b 3d 64 a8 d2 bd 98 26 21 3d
       0.11432806 0.03798887 -0.10286024 0.039343446
0001c0 e3 11 8a bb df 93 70 3d cf 73 8f 3d 16 d9 0d bd
       -0.004213558 0.05873477 0.070045106 -0.034630857
0001d0 10 ea f2 bd c4 a0 93 3d 75 30 46 3d f0 e0 a2 bd
       -0.1186105 0.07208398 0.048386056 -0.0795306
0001e0 69 fe f2 3d 78 31 ba 3c 4e d3 d9 3b 4d b1 dc bc
       0.11864931 0.022728667 0.006647504 -0.026940012
0001f0 6f 6c 51 bc 80 7e a0 bd 8a 92 ed 3d bb 64 97 bd
       -0.0127822 -0.07836628 0.11600216 -0.0739226
000200 8e 5e ed 3c ff 75 bd be 80 c3 6d bd 6a fa 9e bd
       0.028975751 -0.37004086 -0.05804777 -0.077626064
000210 69 27 9e 3d 8e 5d 36 bc de 1a 50 be 7e 78 c9 bc
       0.07722361 -0.011130704 -0.20322749 -0.024593588
000220 a6 ca d1 bd f8 37 83 3c ec c6 27 3e 8d 16 b5 be
       -0.1024373 0.016017899 0.16384476 -0.35368767
000230 ab b7 1b 3d 12 a3 ba 3d be fb bd 3d 83 af 71 3d
       0.038016956 0.091131344 0.09276532 0.05900527
000240 d4 5e 1b be 87 09 29 bc 5b ab ae bd 15 c8 61 3d
       -0.15172893 -0.010317213 -0.08528777 0.055122454
000250 04 fb 02 3e f8 9d 90 3c d1 9a 9b bd c9 33 5a be
       0.12791067 0.01765345 -0.07597888 -0.21308817
000260 9c 88 8f 3c 2a 01 b3 bd bd 4c e8 bd 99 14 36 3d
       0.017521195 -0.087404564 -0.11342762 0.044453237
000270 8b 78 2e bd 3b 9e 34 bd c1 28 ae 3d 4c 68 89 3d
       -0.042595427 -0.044096213 0.08503867 0.06709346
000280 7f da de bc ba a9 d0 bd 35 24 8a 3e 49 37 ab 3d
       -0.027203796 -0.10188623 0.2698075 0.08360154
000290 c0 c6 a1 bb 9d 64 02 3d 49 8f c9 b9 55 1c 36 3d
       -0.004937023 0.031834234 -0.00038444463 0.044460613
0002a0 36 3d 7e bb 38 8b bc bd 60 29 5f bd 1b a6 81 bd
       -0.0038793809 -0.09206241 -0.054482818 -0.0633051
0002b0 51 11 60 3c 40 83 60 3d f7 eb 6c be 0d 60 2f be
       0.013676004 0.05481267 -0.23136888 -0.17126484
0002c0 3d 8b 37 3d 72 ae a8 bc 50 03 93 3d 36 7a 0c 3d
       0.044810522 -0.020590995 0.07178366 0.034296237
0002d0 ff a4 4a 3d 14 75 16 3d e6 e2 33 bd 79 4e 20 3e
       0.04947376 0.03673275 -0.04391756 0.15654935
0002e0 f3 b0 09 bd 4c b1 17 bc 8f 5b 98 bb 25 60 5e 3d
       -0.033616018 -0.009258579 -0.0046495865 0.05429091
0002f0 14 cc 58 3d ad 68 81 3d 03 60 54 bd 8c d1 ad 3d
       0.052929 0.063187934 -0.051849376 0.084872335
000300 85 2f 01 ba 30 fd 93 ba 66 4d da bd ca a8 d1 3b
       -0.00049280404 -0.0011290666 -0.10659294 0.006398295
000310 d9 14 c3 3d 77 e8 22 be 73 87 cf bd 79 70 13 bc
       0.09525461 -0.15908991 -0.10133257 -0.008998984
000320 55 7e 92 3d 90 10 be 3c ab 0b 1d 3d 75 d8 8f bd
       0.07153002 0.023201257 0.038341206 -0.07023708
000330 14 63 16 3b 9c da 6a bd a9 2b 82 bd 6a f7 4c 3d
       0.0022947239 -0.05733739 -0.06355984 0.05004064
000340 19 f9 a6 3c 99 92 b4 3b 44 2e 57 bb 61 1e 9f 3c
       0.02038245 0.00551064 -0.0032833973 0.019423665
000350 1a cc 04 3d 9f 6e 2a be 08 4b e9 bb 53 f9 ff bd
       0.03242121 -0.16643761 -0.00711954 -0.12498727
000360 a3 d7 98 3c 40 21 c1 3d 67 53 84 3d ba 3c 7f 3c
       0.018657511 0.0943017 0.0646122 0.015578443
000370 61 68 07 bd c8 2c 71 bd b5 e6 78 3d 0b 46 de 3c
       -0.033058528 -0.058880597 0.060766894 0.027133008
000380 fa fd 00 bd 86 50 f0 3d e5 f2 7a 3d 1a cf 80 3d
       -0.03149221 0.117341086 0.0612668 0.062895015
000390 19 cc 25 bd 49 94 34 3c 40 6f ba bd be c0 b1 3d
       -0.040477846 0.011021682 -0.091032505 0.08679341
0003a0 6d 95 27 3d d8 2c fd 3d 7a f5 0f bd 18 7d 7c 3d
       0.040913988 0.12362069 -0.035146214 0.061642736
0003b0 35 48 fe 3c a0 a3 fa 3d b6 28 9b be 0d f3 81 3d
       0.03104029 0.1223824 -0.30304497 0.063451864
0003c0 e0 19 e6 bd 9a c3 02 be 3d 35 ca bd 54 a8 c6 bd
       -0.11235404 -0.12769929 -0.09873436 -0.09700075
0003d0 cc 6c b8 3d 14 9f bb bd b6 fd 4e 3d 2d 86 e8 be
       0.09005126 -0.09161201 0.050534926 -0.45414868
0003e0 8d 12 83 3d 08 c3 b0 be 0f c5 27 3e 3c da 81 bb
       0.06400023 -0.34523797 0.16383766 -0.003962783
0003f0 42 e5 59 bd f6 a9 d8 3d c2 e2 fa bd af 07 1d 3c
       -0.053197153 0.105792925 -0.12250282 0.009584351

bias f4 [128]
000000 f3 1a 48 3e f1 56 79 bd 49 ed 13 3e 1d 8a 15 3c
       0.1954153 -0.06087393 0.14445986 0.009127167
000010 64 65 d0 bd 80 0d 17 3c 63 be e3 3d 78 69 f1 3d
       -0.10175589 0.009219527 0.11120298 0.11787695
000020 88 6e 0e 3e 2c 35 89 3d 0a 49 ae 3d a5 be 37 3e
       0.13909352 0.06699595 0.08510025 0.17943819
000030 da 42 10 3e 30 8f 86 be 58 8c 1c be 61 84 0a be
       0.14088002 -0.26281118 -0.15287912 -0.13527061
000040 a5 d8 1e 3e 24 28 6b 3e 22 7c 75 be bc 2b 88 bc
       0.15512331 0.22964531 -0.23973134 -0.016622417
000050 1f c5 b7 3c ce 69 14 be 7a 86 18 be 5e d6 12 3e
       0.022432862 -0.14493486 -0.14895049 0.14339587
000060 c6 c0 2a 3e 4e 8b c1 bd c2 b9 f7 3c a9 42 19 be
       0.166751 -0.094503984 0.030239943 -0.14966835
000070 67 fa c3 be 98 d8 84 bd c9 e4 76 3d 84 93 25 bd
       -0.3827698 -0.064866245 0.06027678 -0.040423885
000080 fd d5 25 3e 9c f3 62 bd 2d 43 00 bc 47 be f4 3d
       0.16194911 -0.055408105 -0.007828516 0.11950355
000090 08 32 e9 bc 28 a4 6b 3e a6 c1 8f 3d f1 89 ff 3c
       -0.02846624 0.2301184 0.070193574 0.031193705
0000a0 62 5f e7 be e9 e1 48 b9 4f 31 d0 3d 57 14 4d 3e
       -0.4518996 -0.00019157644 0.10165655 0.2002729
0000b0 60 c8 ce 3b 25 fc 3e be 35 32 d9 bd 52 f6 d5 bc
       0.0063105077 -0.18650873 -0.10605279 -0.026118431
0000c0 b3 fc bc be fc 66 6f bd 26 06 8e bd cc 07 a3 be
       -0.36911544 -0.058447823 -0.069347665 -0.31841886
0000d0 83 29 b4 be 71 86 ea bd 6b 24 eb 3c ca b1 b0 3d
       -0.3518792 -0.11451424 0.028703889 0.086276606
0000e0 eb e3 84 3d e6 bd 06 3d 1a e7 de 3d 72 4c 12 3c
       0.064887844 0.032895945 0.10883923 0.008929359
0000f0 4d aa 12 3e fe 9e a6 3d 2f 85 33 3e f1 b2 8a 39
       0.14322777 0.08135794 0.17531274 0.00026454733
000100 69 8e 63 3e 80 d8 34 3d 55 a3 10 be d6 42 7a be
       0.22222294 0.044151783 -0.14124806 -0.24439558
000110 f2 fa df 3c aa ca 04 be 66 2d 06 be ef 08 68 bc
       0.02734134 -0.12967935 -0.13103256 -0.014162286
000120 44 dc a0 3d 25 7d 11 3e 84 97 ee bd c1 40 45 be
       0.07854512 0.14207895 -0.11649993 -0.19262983
000130 58 a6 04 3e c1 56 94 3e 4f d2 0a be fd b5 a6 3d
       0.1295408 0.28972438 -0.13556789 0.0814018
000140 33 2a 30 3e ef 1e 1c 3c 8b 52 1e 3c b3 53 18 3e
       0.17203598 0.0095288595 0.009663234 0.14875679
000150 6a e3 ae 3d d3 c8 50 3e b6 d5 e4 bc 2b 40 92 3d
       0.085394695 0.20389108 -0.027933937 0.07141145
000160 2a 55 8c 3a 6f 0d 9f 3e af 78 a0 3d 47 d6 45 bd
       0.0010706533 0.31064937 0.078355186 -0.048300054
000170 35 51 2e 3e 28 d4 38 bc 88 fc 10 be 5d 82 bb 3d
       0.17023166 -0.011281051 -0.14158833 0.09155724
000180 ed 4d e9 bd 2d 43 c7 bd c5 90 6e 3e 47 33 b6 3d
       -0.11391816 -0.0972961 0.23297413 0.08896499
000190 0b 30 53 3e ff 65 de 3d 4d f0 0f 3e 89 30 23 bd
       0.20623796 0.10859298 0.14056511 -0.03984121
0001a0 74 d7 0e bd 0c af a4 bd 8a 77 c8 bd ea 2a 68 bd
       -0.03487344 -0.080412 -0.09788425 -0.05668155
0001b0 bf 56 b7 3d 9d cb 9b 3c 06 49 98 3d c7 8c 47 3d
       0.089520924 0.019017989 0.07435803 0.04871824
0001c0 41 59 5d 3e b8 64 5f bc 11 0b fe 3c 03 22 07 be
       0.21616079 -0.013634853 0.031011136 -0.13196568
0001d0 40 4a 9f 3e c8 87 bc 3c 6d 1d 5d 3e 02 b4 37 bd
       0.31111336 0.023013964 0.21593256 -0.044849403
0001e0 78 d2 b8 bd 1a 1b a2 3e be 30 4e bd 4f 89 e0 bd
       -0.09024519 0.31661302 -0.050339453 -0.109636895
0001f0 c6 1f 52 be ed e4 00 3d f4 51 d1 3d 98 2d c5 bd
       -0.20519933 0.03146832 0.102207094 -0.09627837
