文件合集/人工智能系统实战第三期/实战代码/深度学习项目实战/神经网络实现鸢尾花分类/results/weights/NN.pth (torch, 2911 bytes, 6 tensors)

layer1.weight f4 [12, 4]
000000 18 83 d5 3c 26 0b 1a 3e 4a 88 16 bf 76 75 56 bf
       0.026063487 0.15043315 -0.5880171 -0.8377298
000010 e0 9b 10 be ce 66 c8 3e 49 4f 66 3f 36 10 0e 3f
       -0.14121962 0.39140934 0.8996473 0.55493486
000020 d5 98 ed 3e f1 c3 a0 be b0 0b a2 bd 12 9a 97 3e
       0.46405664 -0.3139949 -0.079123855 0.29609734
000030 f5 c4 5a be 1d 20 f8 be d4 e1 e0 3d 7f f2 ea be
       -0.21364196 -0.48462 0.10980573 -0.45888135
000040 6a c1 20 bf fb 2f 1c 3f a0 ef df be 74 26 49 3e
       -0.62795126 0.6101071 -0.43737507 0.19643575
000050 a2 31 bd be c0 8f 0c 3f 0a 0a fa 3e fe ce f3 3e
       -0.3695193 0.54906845 0.48835784 0.4761886
000060 f6 01 24 bf 52 5a 7d 3f c1 be 16 bf ce 6a 21 3e
       -0.6406549 0.9896594 -0.5888482 0.15763399
000070 9a 62 14 3f d8 72 8c be be 0b 38 3f 8a 49 aa 3e
       0.57962954 -0.2743137 0.7189292 0.3325923
000080 d7 ce c2 be 6a d7 0d 3f 7b f9 4a bf 9b 6f cd bd
       -0.3804843 0.5540682 -0.79286927 -0.10031053
000090 96 d5 16 3e b2 07 de 3d 58 1e 2a bf 63 51 2c bf
       0.14729914 0.108413115 -0.6645255 -0.67311686
0000a0 7a e9 09 bf 8a 83 67 3f 13 5f 50 bf 60 57 58 bf
       -0.5387188 0.9043509 -0.8139507 -0.84508324
0000b0 fc 37 87 3e d1 53 dc 3e b5 d2 dc bd d2 c6 b8 be
       0.264099 0.43032697 -0.10782377 -0.36089188

layer1.bias f4 [12]
000000 6d f4 89 be fa c7 0d bf a3 54 62 be 25 21 9f 3e
       -0.26944295 -0.55383265 -0.22102599 0.31079975
000010 b4 c6 35 bf a2 76 b0 be 5c 96 f7 bd 01 59 f4 3c
       -0.7100632 -0.3446551 -0.12089226 0.029827597
000020 c1 69 b0 3e 40 4e 24 3e 6b 71 16 bd 97 e4 93 be
       0.34455684 0.16045475 -0.036729258 -0.28885338

layer2.weight f4 [6, 12]
000000 87 64 95 be 3f 0f 04 3f 13 32 88 3e 89 75 35 3e
       -0.2917826 0.51585764 0.26600704 0.17720617
000010 a4 65 1e bf 5e 9f 3a 3e 9c 86 1f bf 7f 30 28 3f
       -0.6187384 0.18224856 -0.6231477 0.65699
000020 f5 13 1c bf cb c3 26 be 30 40 1a bf 84 64 84 be
       -0.6096795 -0.16285627 -0.6025419 -0.25857937
000030 26 c2 36 bf bd 54 35 3f db b7 bf 3d 27 4e b7 be
       -0.71389997 0.70832425 0.093612395 -0.35801813
000040 01 a9 b5 3e ae ea f3 3e 91 3f 66 3e e3 7b 66 3e
       0.35480502 0.47639984 0.22485186 0.22508197
000050 a8 15 c0 be 0a c4 39 bf 04 38 ae be 6e e5 90 be
       -0.37516522 -0.72564757 -0.34027112 -0.2830004
000060 f3 8c 0b bf d4 ab 61 3e 62 1d d1 3d a6 d4 f9 3e
       -0.54511946 0.22038203 0.102106825 0.4879505
000070 81 15 bc be 72 dd 60 be bc 83 ca be cf f3 85 3e
       -0.36735156 -0.21959475 -0.3955363 0.26162574
000080 56 9a 12 bf 03 c9 c0 3a 7b 1d 94 be 1a 0e 02 be
       -0.5726675 0.0014708344 -0.28928742 -0.12700692
000090 65 73 dc 3e fb 3a 90 be 95 75 71 be d2 46 c7 3c
       0.4305679 -0.2817 -0.2358001 0.024325762
0000a0 5b 93 5d bc 74 e8 84 3b 5c ee c6 3e 5a 36 cf be
       -0.013523902 0.004056031 0.3885373 -0.40471154
0000b0 31 12 5a 3d 7a e6 6e 3e 72 18 e7 3e 84 08 26 bd
       0.053240005 0.23330107 0.45135838 -0.040535465
0000c0 3a 54 b7 3e d3 82 8f be 3d d4 68 3d 5e 21 05 be
       0.35806447 -0.28029498 0.05684303 -0.1300101
0000d0 58 49 d4 3e da b5 38 be b0 be ab 3e 1c f7 29 bf
       0.41462207 -0.18038121 0.3354392 -0.66392684
0000e0 86 93 68 3e c6 dc cb 3d a9 8b aa 3e cf af 33 3e
       0.22712526 0.099542186 0.33309677 0.17547534
0000f0 e1 3e f4 3e ab 25 c4 be c8 6a a8 bc 96 f7 91 3e
       0.47704223 -0.38309988 -0.02055873 0.28509206
000100 67 d5 94 3e 83 1e d5 bc 0b 40 5b 3e 90 e1 93 bc
       0.29069063 -0.026015526 0.21411149 -0.018051893
000110 66 4e 82 3e b1 44 0e 3f ee 06 0e 3e 2e 8b 0c 3d
       0.25450438 0.55573565 0.13869831 0.03431242

layer2.bias f4 [6]
000000 52 5b 92 3d 03 0d a6 bd be 0e 25 3e 5c de f5 3c
       0.07146324 -0.081079505 0.16118905 0.030013256
000010 41 f5 b9 be f6 93 c1 3d
       -0.36319926 0.094520494

layer3.weight f4 [3, 6]
000000 92 42 84 be 45 b9 bc be d5 01 f8 be e2 7b 2d 3f
       -0.2583204 -0.368601 -0.48438898 0.67767155
000010 fa 71 29 3f 90 4a be 3e 66 82 a2 3e d7 9d 28 bf
       0.6618954 0.37166262 0.3174011 -0.65865844
000020 fd db 9c 3e 0b c4 c4 3d 12 55 a5 3c 9f ad be 3d
       0.30636588 0.09607705 0.020182166 0.09310459
000030 2c 18 0d 3f fe 33 3f 3f 3b 0c e6 3e 27 95 00 bf
       0.5511501 0.7468871 0.44931206 -0.5022759
000040 b2 1b 6a be e6 1a 2b bf
       -0.22862127 -0.6683792

layer3.bias f4 [3]
000000 02 b1 15 be 9e 9d d5 bd 27 8b a0 be
       -0.14618304 -0.10430454 -0.31356165
